model/src/asset/model/master_Full_model.pth (torch, 836606 bytes, 14 tensors)

weight f4 [14]
1.1387366 0.9669213 0.9537341 1.0982867 1.1492684 1.1649717 0.86969477 0.9169741
0.84505314 1.0455662 1.0011808 1.1801015 1.2381332 1.1219492
00000000: 1fc2 913f 2888 773f eb27 743f a994 8c3f
00000010: 3a1b 933f cb1d 953f 51a4 5e3f d1be 6a3f
00000020: 6755 583f 1dd5 853f b126 803f 910d 973f
00000030: 267b 9e3f 089c 8f3f

bias f4 [14]
-0.035786256 0.10816214 -0.19193435 0.015647143 -0.026878757 0.028066734 0.1394598 0.090322964
0.088095196 0.03542634 -0.014736689 0.037891775 -0.06852066 -0.174209
00000000: 9c94 12bd 1d84 dd3d 708a 44be 702e 803c
00000010: d730 dcbc 35ec e53c 8dce 0e3e 3ffb b83d
00000020: 416b b43d 361b 113d 2772 71bc 6834 1b3d
00000030: 8f54 8cbd d863 32be

running_mean f4 [14]
-0.8586579 3.9859183 -5.5518107 -0.17537197 0.11595783 0.017062433 27.49115 -7.7341185
128.24368 221.74004 117.92352 150.5894 168.07588 117.163635
00000000: 01d1 5bbf 4919 7f40 6fa8 b1c0 b694 33be
00000010: 4c7b ed3d 84c6 8b3c e0ed db41 e67d f7c0
00000020: 623e 0043 73bd 5d43 d8d8 eb42 e396 1643
00000030: 6d13 2843 c853 ea42

running_var f4 [14]
11.912008 14.543666 18.798256 2.0542736 1.5122261 1.7484761 727.1807 593.5918
1294.8348 50758.44 51445.133 79867.02 84182.66 53497.875
00000000: 9697 3e41 dbb2 6841 d462 9641 3879 0340
00000010: a090 c13f 11ce df3f 91cb 3544 e065 1444
00000020: b7da a144 7146 4647 22f5 4847 83fd 9b47
00000030: 546b a447 e0f9 5047

weight f4 [32, 1, 3, 3]
0.20522791 -0.23633614 0.061858658 0.13647892 -0.08949487 -0.0116075 0.18821844 0.051707327
0.033538327 0.11934613 -0.090232395 -0.039223332 0.066272326 -0.271285 -0.12933624 -0.007145854
-0.20732488 -0.11548427 -0.03774324 0.010474943 0.067480564 -0.22888947 0.11213907 -0.07760858
-0.21062434 -0.21460132 0.054828208 0.09002062 -0.22887503 0.1385187 0.008203193 0.03167212
0.010193067 -0.08243431 0.26914436 -0.16055706 0.022855215 0.039507277 0.30319458 0.02791996
0.09669686 0.142645 -0.06172146 -0.054095216 0.09537488 -0.02098619 -0.04313001 0.04698459
-0.07894948 -0.22402868 0.14076753 -0.16172448 -0.1312753 0.17963123 0.0036049685 0.049254496
-0.033053808 0.08314199 0.090827204 0.032010946 0.043251976 0.13490842 -0.029189017 -0.17480482
0.05812818 -0.06598307 0.017492928 0.09846378 -0.26526535 0.030864222 -0.044843197 -0.05964912
-0.07456432 -0.19983956 0.05619241 -0.15802898 0.041971777 -0.06501055 -0.12024469 -0.16784748
0.07392084 0.2298252 -0.09920061 0.013797177 0.038559288 -0.088632055 -0.09769055 -0.22556299
-0.018957248 -0.038300764 -0.037675094 0.0063426406 0.017889688 -0.032472275 -0.038292196 0.009659328
0.12467278 0.11846166 -0.093872294 0.041496906 -0.035953604 -0.13950963 0.10187722 -0.10482699
0.05648478 0.082362145 -0.08687907 0.05297569 0.06746366 -0.23933464 0.08983981 0.018453728
-0.20524342 -0.01532934 -0.0929944 0.012562838 0.10267584 0.18045817 -0.15996228 -0.019989777
-0.16839153 -0.10070625 0.13729393 -0.17274852 0.14347686 0.08531626 0.15497497 0.07014018
-0.20017426 0.118764095 0.24347039 -0.14922419 0.057724632 0.06865503 -0.08590984 0.10188975
0.09475874 0.20865434 -0.119345576 -0.029466584 -0.1320244 0.16930558 0.033158112 -0.030647814
-0.032533735 0.12996359 -0.23258157 -0.0076347725 0.2050852 -0.2769096 -0.103316955 0.13243651
-0.10462963 -0.112698115 0.22302501 -0.12317282 -0.064795874 0.17204942 -0.043901876 -0.09656017
0.021937914 0.17612548 0.00855601 0.089036696 -0.02439542 -0.005334772 -0.0973484 -0.13079838
-0.13587485 -0.054768395 -0.019231807 -0.10846145 0.031534072 0.11636519 -0.071199715 -0.09653719
0.028255995 0.008572679 -0.028888132 -0.03581866 -0.07907293 0.21950038 0.007309718 -0.041067813
0.17980492 0.026637271 0.0047190436 0.20469193 0.17815807 0.030083802 0.12664455 0.08760242
0.0020720102 -0.073493786 0.1492909 -0.11120166 0.03258257 -0.3227122 0.14184003 0.032817386
-0.07568496 -0.27171573 0.13644536 -0.08858019 0.12451118 -0.18759535 0.0011487493 -0.20709276
-0.05220289 -0.19459024 -0.24798258 -0.031154243 -0.14349845 -0.11344583 0.0067230086 -0.10547144
-0.056556683 0.07292721 -0.024887959 -0.070894115 0.106451064 -0.014224398 -0.06135061 0.08951788
-0.048222806 -0.03077067 -0.14544189 -0.16966838 -0.07271673 -0.09648135 -0.028511368 -0.04334108
0.031618807 0.016627584 -0.16772234 0.117943615 -0.07210655 -0.051872432 0.12122602 -0.019642014
-0.14170709 0.09655901 0.111832574 -0.029403888 0.03932316 -0.26715517 -0.02593198 0.15902649
-0.14330375 -0.009213022 -0.15101624 0.38279626 -0.07357076 0.19027756 -0.013578494 0.026896134
00000000: 4427 523e 1a02 72be 815f 7d3d 21c1 0b3e
00000010: 1649 b7bd 622d 3ebc 56bc 403e 10cb 533d
00000020: 7c5f 093d be6b f43d c3cb b8bd a5a8 20bd
00000030: c9b9 873d dee5 8abe b870 04be c527 eabb
00000040: f94c 54be 0483 ecbd a898 1abd 189f 2b3c
00000050: 4033 8a3d 0062 6abe 2ba9 e53d 3ff1 9ebd
00000060: e8ad 57be 73c0 5bbe 8b93 603d bb5c b83d
00000070: 375e 6abe d9d7 0d3e af66 063c a0ba 013d
00000080: d200 273c 52d3 a8bd 4acd 893e 1269 24be
00000090: dc3a bb3c 62d2 213d 523c 9b3e 66b8 e43c
000000a0: 0109 c63d 8811 123e a4cf 7cbd f292 5dbd
000000b0: e853 c33d 3beb abbc 18a9 30bd ea72 403d
000000c0: 44b0 a1bd c667 65be 5d25 103e 1a9b 25be
000000d0: 086d 06be 40f1 373e 5641 6c3b 15bf 493d
000000e0: 6e63 07bd 5946 aa3d 9d03 ba3d e91d 033d
000000f0: fc28 313d 6f25 0a3e ce1d efbc 0900 33be
00000100: d117 6e3d 2222 87bd 544d 8f3c 61a7 c93d
00000110: dcd0 87be f7d6 fc3c 80ad 37bd a352 74bd
00000120: 2eb5 98bd bea2 4cbe 032a 663d 59d2 21be
00000130: 99ea 2b3d 4024 85bd d942 f6bd 36e0 2bbe
00000140: cf63 973d 4c57 6b3e b029 cbbd 8e0d 623c
00000150: 58f0 1d3d b984 b5bd fc11 c8bd fcf9 66be
00000160: 3b4c 9bbc 43e1 1cbd 3351 1abd edd5 cf3b
00000170: 658d 923c a601 05bd 47d8 1cbd 2842 1e3c
00000180: 7154 ff3d 079c f23d 1e40 c0bd a9f8 293d
00000190: 1644 13bd 9ddb 0ebe 01a5 d03d 88af d6bd
000001a0: 965c 673d 7cad a83d a7ed b1bd 0afd 583d
000001b0: 632a 8a3d 2414 75be effd b73d 462c 973c
000001c0: 552b 52be e927 7bbc d973 bebd 5dd4 4d3c
000001d0: b647 d23d 07ca 383e 27cd 23be 9ac1 a3bc
000001e0: d46e 2cbe 143f cebd c896 0c3e fde4 30be
000001f0: 99eb 123e 4bba ae3d c2b1 1e3e a8a5 8f3d
00000200: 7bfa 4cbe 973a f33d 4d50 793e 3ace 18be
00000210: aa70 6c3d 029b 8c3d 80f1 afbd 93ab d03d
00000220: df10 c23d 7ca9 553e 746b f4bd e863 f1bc
00000230: 6831 07be 715e 2d3e cdd0 073d 2011 fbbc
00000240: 1842 05bd 2d15 053e dd29 6ebe 1d2d fabb
00000250: db01 523e 18c7 8dbe d797 d3bd 709d 073e
00000260: 0f48 d6bd 45ce e6bd ab60 643e 0842 fcbd
00000270: b3b3 84bd b92d 303e 74d2 33bd 57c1 c5bd
00000280: 24b7 b33c 3d5a 343e 822e 0c3c df58 b63d
00000290: e7d8 c7bc 50cf aebb 995e c7bd 03f0 05be
000002a0: c722 0bbe d354 60bd 068c 9dbc 0921 debd
000002b0: df29 013d df50 ee3d 28d1 91bd 4ab5 c5bd
000002c0: 1e79 e73c 6c74 0c3c cea6 ecbc 96b6 12bd
000002d0: fdf0 a1bd b5c4 603e 5c86 ef3b b936 28bd
000002e0: c81e 383e 6836 da3c 35a2 9a3b c39a 513e
000002f0: 126f 363e 4e72 f63c 1caf 013e e668 b33d
00000300: 90ca 073b e983 96bd b7df 183e b2bd e3bd
00000310: 4d75 053d 893a a5be 833e 113e 866b 063d
00000320: b700 9bbd 531e 8bbe 55b8 0b3e 8869 b5bd
00000330: b8ff fe3d ff18 40be a191 963a 2010 54be
00000340: b3d2 55bd aa42 47be 25ef 7dbe 2f37 ffbc
00000350: 42f1 12be 4a56 e8bd af4c dc3b 6901 d8bd
00000360: fba7 67bd dc5a 953d d5e1 cbbc ef30 91bd
00000370: 0403 da3d 730d 69bc c74a 7bbd 2655 b73d
00000380: 4785 45bd c612 fcbc b8ee 14be 8cbd 2dbe
00000390: 82ec 94bd 0498 c5bd ac90 e9bc 6b86 31bd
000003a0: b982 013d 9236 883c 68bf 2bbe 6c8c f13d
000003b0: 99ac 93bd 3078 54bd 5945 f83d 4ae8 a0bc
000003c0: aa1b 11be bbc0 c53d 7a08 e53d 6ce0 f0bc
000003d0: 5211 213d 90c8 88be 4e6f d4bc d7d7 223e
000003e0: 38be 12be 37f2 16bc 00a4 1abe dffd c33e
000003f0: 44ac 96bd 1fd8 423e 5578 5ebc 4855 dc3c

bias f4 [32]
-0.07061414 0.04903579 -0.056615293 -0.06658509 0.091956355 -0.054055285 0.058525335 -0.07429234
-0.062690884 -0.018798906 -0.014212202 -0.04122536 -0.1123661 0.0052321297 -0.16556042 -0.12694253
-0.17535356 -0.0202653 -0.12042232 0.03856181 0.00021290364 -0.10820921 -0.027887156 -0.021972112
-0.039612737 0.042203635 -0.05257532 -0.045528684 -0.05036174 -0.1755294 0.070439234 -0.08067572
00000000: 259e 90bd c1d9 483d 70e5 67bd c35d 88bd
00000010: 9d53 bc3d 1369 5dbd 43b8 6f3d 9526 98bd
00000020: 1464 80bd 2a00 9abc 4cda 68bc ecdb 28bd
00000030: 3320 e6bd 4972 ab3b ac88 29be 39fd 01be
00000040: e28f 33be 6a03 a6bc fa9f f6bd fdf2 1d3d
00000050: e33e 5f39 ca9c ddbd 9b73 e4bc dcfe b3bc
00000060: f740 22bd b8dd 2c3d 3859 57bd 497c 3abd
00000070: 1d48 4ebd fbbd 33be 7242 903d 5039 a5bd

weight f4 [64, 32, 3, 3]
0.14321932 -0.2558314 0.15176725 0.11434339 -0.0046148966 0.026273452 0.077127345 0.04430631
0.04771144 0.09445742 -0.18490385 -0.0549693 -0.048113987 -0.13311836 -0.07637577 -0.06972527
-0.060094737 -0.066565216 0.01694836 -0.06950804 0.043651998 0.13849 -0.03341605 -0.0038147676
0.22059429 -0.12214142 0.06958735 0.053333785 -0.23073988 0.04264615 0.06965523 -0.14376694
0.2927328 0.009580448 0.037922468 0.14753097 -0.12657996 -0.018622367 0.02404497 -0.029552286
0.05132094 0.19756113 -0.03462388 0.025804054 0.033575274 -0.023390524 0.14937495 -0.03950214
0.06403877 0.19455838 0.014381278 0.013282379 0.06341589 0.074693836 -0.032099303 0.11948829
0.030144965 -0.07449567 0.004716692 0.04635867 0.13777243 -0.122747764 0.010329097 0.02460752
-0.03852494 -0.111510575 -0.05995154 -0.090518445 -0.19607565 -0.032734245 -0.06963481 -0.11018919
0.04799864 0.07655601 -0.053987123 0.04954676 -0.074361145 -0.19481197 0.10352977 -0.07875909
-0.1391861 -0.06285172 -0.19399865 -0.10756455 -0.0013532061 -0.15411763 -0.09306583 -0.110581286
0.006669992 -0.06051442 -0.004076027 -0.05661413 -0.035531968 0.01938347 -0.07882052 0.09447401
-0.05388056 -0.10257527 0.07518417 -0.03023487 -0.08879408 0.024813756 0.08236427 -0.015318849
0.0025262865 0.053218387 -0.016669426 -0.06258943 0.03043767 0.08570315 -0.22598214 0.09521568
-0.0020499325 -0.09707358 0.08177544 0.019627865 -0.13991177 0.030421507 0.17404543 -0.016346231
-0.052192286 -0.11512417 0.101183765 -0.0012195123 -0.011798674 0.003119345 0.00626624 -0.15669186
0.15775438 0.0164848 -0.22759324 0.15209928 -0.0010374429 -0.057743575 0.0528186 0.08083259
-0.004187402 0.06801318 -0.094909504 -0.2274434 0.11362914 0.12492245 -0.09250647 0.11082604
-0.05835261 -0.015228212 0.037235565 0.07272604 -0.044341564 0.103155926 0.07543219 -0.092423156
-0.03766638 -0.039121877 0.012328531 -0.057213258 -0.1228433 0.049052082 0.022059018 0.17621729
-0.05746591 0.09034808 0.02446595 -0.036170457 -0.012763423 0.13649616 -0.06916796 -0.10820256
0.07429193 -0.18719181 -0.09976697 0.006866956 -0.04932398 0.090541594 -0.029845988 0.020895291
-0.0384263 0.07962219 -0.026300928 0.0320023 -0.055940673 0.13458481 -0.0069569405 -0.048097067
-0.043859206 0.06789933 0.012969731 -0.10975514 -0.010095448 -0.025564149 -0.21677996 0.068287924
-0.062890604 -0.054373924 0.029772414 0.048168708 0.10433156 -0.05178595 0.15485546 -0.08386862
0.07771762 -0.010072685 -0.08361982 -0.0809702 -0.023956448 -0.043208446 0.06437518 -0.013145414
-0.0939592 -0.28296414 0.062036633 -0.28799346 -0.1673064 0.1337343 -0.07723577 -0.14596069
0.020288259 0.00504377 -0.04991815 0.012465562 -0.010044408 0.05234539 0.013733521 -0.14894928
0.030609466 -0.042493116 -0.03135282 -0.1502147 0.0039418456 -0.06910452 -0.15137072 -0.064050056
-0.080966644 -0.26798096 -0.118311524 -0.0072676204 0.014932978 -0.020019483 -0.03494582 0.08775112
0.039677076 -0.16290899 0.06051767 0.08890877 -0.014606098 0.07114436 -0.036809992 0.0025285492
0.022619547 -0.014532643 -0.23896164 0.03614887 0.1675329 -0.06298553 0.091868 0.14153434
00000000: 16a8 123e 55fc 82be e068 1b3e de2c ea3d
00000010: 8f38 97bb 6c3b d73c f1f4 9d3d 897a 353d
00000020: 126d 433d e472 c13d 6f57 3dbe 7d27 61bd
00000030: 2c13 45bd 2e50 08be e66a 9cbd 1fcc 8ebd
00000040: e625 76bd 5853 88bd 49d7 8a3c 3b5a 8ebd
00000050: 70cc 323d 53d0 0d3e 45df 08bd 2e01 7abb
00000060: 78e3 613e 4825 fabd d083 8e3d 8774 5a3d
00000070: 1347 6cbe bbad 2e3d 67a7 8e3d a437 13be
00000080: 13e1 953e 50f7 1c3c 9754 1b3d 5c12 173e
00000090: 2d9e 01be ef8d 98bc f5f9 c43c a317 f2bc
000000a0: e835 523d 774d 4a3e c5d1 0dbd 0663 d33c
000000b0: 3a86 093d 7c9d bfbc bff5 183e ffcc 21bd
000000c0: c226 833d 503a 473e 749f 6b3c 569e 593c
000000d0: 31e0 813d 15f9 983d 8f7a 03bd 47b6 f43d
000000e0: 93f2 f63c 3091 98bd 7b8e 9a3b 97e2 3d3d
000000f0: 3714 0d3e 2e63 fbbd 5f3b 293c b695 c93c
00000100: 54cc 1dbd a85f e4bd bf8f 75bd bc61 b9bd
00000110: 0ec8 48be 5814 06bd b29c 8ebd dfaa e1bd
00000120: 399a 443d 66c9 9c3d 9a21 5dbd 8bf1 4a3d
00000130: a84a 98bd ca7c 47be 6b07 d43d 724c a1bd
00000140: cd86 0ebe 67b8 80bd 95a7 46be ce4a dcbd
00000150: 105e b1ba 03d1 1dbe 4c99 bebd 7178 e2bd
00000160: f38f da3b f8dd 77bd 3190 85bb 38e4 67bd
00000170: f889 11bd 15ca 9e3c a76c a1bd 977b c13d
00000180: ddb1 5cbd fc12 d2bd 28fa 993d 1eaf f7bc
00000190: acd9 b5bd 3846 cb3c 99ae a83d e9fb 7abc
000001a0: 0e90 253b 86fb 593d 528e 88bc e32e 80bd
000001b0: 6c58 f93c 2285 af3d dd67 67be 7000 c33d
000001c0: 2958 06bb 83ce c6bd e279 a73d 9eca a03c
000001d0: 0845 0fbe 8636 f93c f738 323e 88e8 85bc
000001e0: 94c7 55bd 39c6 ebbd 6f39 cf3d 0bd8 9fba
000001f0: 3a4f 41bc ed6d 4c3b 0855 cd3b d573 20be
00000200: 5d8a 213e 220b 873c 340e 69be eabf 1b3e
00000210: cffa 87ba 8784 6cbd 5158 583d 8f8b a53d
00000220: 7936 89bb 7e4a 8b3d ea5f c2bd ece6 68be
00000230: 65b6 e83d 57d7 ff3d 0874 bdbd c3f8 e23d
00000240: 2503 6fbd c07f 79bc 5284 183d 64f1 943d
00000250: 809f 35bd 6a43 d33d 317c 9a3d 5a48 bdbd
00000260: 1048 1abd 433e 20bd 9bfd 493c 7358 6abd
00000270: 4595 fbbd d6ea 483d 1db5 b43c 4e72 343e
00000280: 6061 6bbd 6a08 b93d d16c c83c 7927 14bd
00000290: ad1d 51bc a6c5 0b3e eea7 8dbd 4e99 ddbd
000002a0: 5e26 983d 36af 3fbe a052 ccbd 3404 e13b
000002b0: f107 4abd df6d b93d 937f f4bc 9a2c ab3c
000002c0: e564 1dbd f510 a33d 0b75 d7bc d814 033d
000002d0: 0c22 65bd 9ad0 093e 0cf7 e3bb 6e01 45bd
000002e0: b6a5 33bd ce0e 8b3d ff7e 543c 4ec7 e0bd
000002f0: 6167 25bc e86b d1bc 91fb 5dbe 8ada 8b3d
00000300: cacc 80bd 31b7 5ebd 47e5 f33c 8d4c 453d
00000310: c9ab d53d 811d 54bd 6e92 1e3e 50c3 abbd
00000320: 6a2a 9f3d e707 25bc de40 abbd b4d3 a5bd
00000330: 5040 c4bc 57fb 30bd 22d7 833d dd5f 57bc
00000340: ae6d c0bd ade0 90be 201a 7e3d e173 93be
00000350: 5e52 2bbe a5f1 083e ca2d 9ebd b876 15be
00000360: 9033 a63c 3646 a53b f976 4cbd 5b3c 4c3c
00000370: 4d91 24bc 1f68 563d 9002 613c 2986 18be
00000380: b4c0 fa3c 430d 2ebd d16b 00bd e2d1 19be
00000390: 992a 813b ac86 8dbd ed00 1bbe ad2c 83bd
000003a0: d7d1 a5bd cd34 89be 504d f2bd 3825 eebb
000003b0: 73a9 743c e6ff a3bc 5923 0fbd dcb6 b33d
000003c0: 6e84 223d 9dd1 26be 60e1 773d cd15 b63d
000003d0: 6a4e 6fbc 22b4 913d 13c6 16bd 04b6 253b
000003e0: a14c b93c 531a 6ebc 5cb2 74be d610 143d
000003f0: bf8d 2b3e 8ffe 80bd 4a25 bc3d 61ee 103e

bias f4 [64]
-0.023372155 -0.029651675 0.031359434 0.054539926 0.044574093 0.004793497 -0.038316064 -0.054976236
-0.06368793 -0.011226642 -0.021417594 -0.14853677 0.08617621 -0.07276444 0.07566954 0.08977712
0.025494063 -0.09983166 0.057665765 0.010662719 0.12733793 -0.0014663574 -0.021110004 0.12486507
0.11908276 0.013940031 -0.14936909 0.11284367 -0.049467236 -0.12197077 0.046280183 -0.029362014
-0.009459523 -0.039834533 -0.06515786 -0.04668316 0.072492816 0.084243804 -0.10295775 0.10783771
-0.04649165 0.11930294 0.033514053 0.13608466 0.0992296 -0.025976043 -0.096338846 -0.0022193748
0.11843652 -0.026255049 0.043578137 0.113743305 0.12581867 0.09064746 0.08651716 0.082565285
-0.11719967 0.16076715 -0.084704064 -0.08205983 -0.14871725 -0.1454019 0.034749728 -0.039968926
00000000: f676 bfbc 12e8 f2bc c072 003d 4265 5f3d
00000010: 5393 363d c412 9d3b 4ef1 1cbd c32e 61bd
00000020: d16e 82bd f3ef 37bc f373 afbc 061a 18be
00000030: 277d b03d 8605 95bd a2f8 9a3d 11dd b73d
00000040: edd8 d03c 8b74 ccbd f032 6c3d afb2 2e3c
00000050: e064 023e ca32 c0ba e3ee acbc 42b9 ff3d
00000060: a9e1 f33d ba64 643c 36f4 18be 951a e73d
00000070: 289e 4abd d0cb f9bd 4a90 3d3d 9b88 f0bc
00000080: 1dfc 1abc 8929 23bd 7c71 85bd d736 3fbd
00000090: 1d77 943d 0488 ac3d 83db d2bd 04da dc3d
000000a0: 076e 3ebd 1a55 f43d 0846 093d c759 0b3e
000000b0: e338 cb3d b6cb d4bc 4d4d c5bd ee72 11bb
000000c0: d98e f23d d414 d7bc fd7e 323d 40f2 e83d
000000d0: 9cd6 003e 60a5 b93d e92f b13d fd17 a93d
000000e0: 6106 f0bd 25a0 243e 5379 adbd fc0e a8bd
000000f0: 5649 18be 3ce4 14be bb55 0e3d 75b6 23bd

weight f4 [64, 64, 3, 3]
-0.11809559 -0.013170664 0.11112982 -0.060211238 0.026771393 -0.065538876 0.04495393 0.12736866
-0.12701102 -0.061336536 0.12702067 -0.14815795 -0.07810874 0.14205883 -0.09897951 0.1330281
0.021450417 -0.16200875 -0.13811325 -0.05861368 -0.051623013 0.039260156 -0.047937497 -0.103322096
0.0040287063 0.07121994 -0.20945652 -0.037328154 -0.06971301 -0.04188395 -0.008331106 -0.1492651
-0.01805108 0.099119216 0.0018121302 0.06649924 -0.07026054 0.09240718 0.09796185 -0.13203874
-0.0501133 -0.16351765 0.024572104 -0.08270002 -0.18872131 0.037435383 -0.01563415 -0.07557687
-0.036494188 -0.09841763 0.063052066 -0.118351266 0.13566177 0.11206892 0.04305208 0.006709677
0.010667082 0.099830724 0.15363295 -0.13947214 0.0026577336 0.029787058 0.06865842 -0.06445148
0.07723752 -0.05616554 0.15505362 0.17616276 -0.07768679 0.014272655 0.019523153 0.13348445
-0.06885947 -0.048106063 0.040866595 0.048667178 0.01670846 0.034152452 -0.11588305 -0.051690347
0.18907264 -0.05180656 -0.02565538 -0.09836676 -0.05951676 0.02477199 -0.08669873 -0.0056878147
-0.06618219 0.037496906 -0.26229796 0.017834777 -0.011687598 -0.14723234 -0.01805504 0.098906174
-0.1332495 0.05108335 0.07421247 0.09330197 -0.049209446 -0.0127232745 -0.122640684 -0.08597331
0.079428054 -0.050277233 -0.10246459 -0.059758607 0.09865544 -0.036178887 -0.18944865 -0.08616096
-0.01169833 -0.009805676 0.02670745 -0.06794948 -0.0066158846 -0.07741552 -0.09782754 -0.085818864
0.12665044 -0.055643585 -0.11679996 0.14745606 0.030852437 0.020657975 -0.010457764 0.047958028
-0.037684206 0.02903767 0.015876293 -0.049846377 -0.029673165 0.009508967 0.11234343 -0.112195864
-0.054947283 -0.014977635 0.013185476 0.024890251 -0.014218963 -0.098928355 -0.015203069 0.08278843
-0.17466673 0.15255754 -0.055145133 0.038638867 0.21948592 -0.11116355 -0.09974013 0.055396426
-0.12223086 -0.05087908 -0.022486774 -0.08242133 0.063328005 0.02694374 -0.04485453 0.08383357
0.07889534 -0.21556038 -0.0098026125 0.018423697 0.0419666 -0.09240686 -0.062210843 -0.01253975
0.004979513 -0.03935092 -0.11984526 -0.052845307 -0.17516434 -0.0753783 0.09396334 -0.030968769
-0.1163477 0.060755305 0.21410824 0.032169424 -0.101837605 -0.12616678 -0.046496533 -0.0062876027
-0.16771413 0.0027281218 0.010574201 0.045226548 -0.062006075 -0.009070954 -0.14491774 0.065077074
-0.20588705 -0.00975907 -0.088743664 -0.09175944 -0.0140220495 0.13240185 -0.137426 -0.18234937
0.107422 -0.10593128 0.0022632282 0.13188405 0.018980555 0.07759694 0.084592596 -0.066918544
-0.090546936 -0.123475045 0.045440268 -0.17841625 0.052063707 0.087134235 0.12345784 0.19379576
-0.09088379 -0.03258693 -0.013710673 -0.19197033 0.05275332 -0.109278806 0.0034641707 0.08754678
-0.3059401 -0.084372506 -0.02765661 0.00061101484 -0.123352215 -0.19283117 -0.12061334 -0.15895638
-0.08768132 -0.17176197 0.098759435 -0.0025917846 -0.09369051 0.00987672 -0.08511499 -0.12750793
0.093561396 -0.058320608 0.13793758 0.008306922 -0.08463059 -0.095664605 0.019553464 0.021986945
0.015333885 0.080767624 0.08344135 0.0016282499 -0.03264367 0.061725438 0.011246815 0.01445524
00000000: 1adc f1bd c5c9 57bc 0898 e33d 0fa0 76bd
00000010: ae4f db3c 3f39 86bd 9d21 383d ee6c 023e
00000020: 2d0f 02be 053c 7bbd b511 023e b8b6 17be
00000030: 7af7 9fbd df77 113e c5b5 cabd 8538 083e
00000040: c9b8 af3c 9fe5 25be 8f6d 0dbe e614 70bd
00000050: a772 53bd 42cf 203d 1c5a 44bd 899a d3bd
00000060: 3d03 843b c3db 913d c57b 56be 68e5 18bd
00000070: b2c5 8ebd 818e 2bbd 317f 08bc f3d8 18be
00000080: dcdf 93bc 04ff ca3d 0085 ed3a c130 883d
00000090: c2e4 8fbd fa3f bd3d 39a0 c83d 2a35 07be
000000a0: 9b43 4dbd 2c71 27be 704b c93c a15e a9bd
000000b0: 2940 41be d855 193d 3013 80bc 0cc8 9abd
000000c0: ee7a 15bd 2f8f c9bd 7121 813d 2662 f2bd
000000d0: ebea 0a3e 6484 e53d 6157 303d dadc db3b
000000e0: fcc4 2e3c 0d74 cc3d f551 1d3e c9d1 0ebe
000000f0: 5f2d 2e3b fd03 f43c c99c 8c3d 23ff 83bd
00000100: b42e 9e3d d60d 66bd 60c6 1e3e 0364 343e
00000110: 401a 9fbd dbd7 693c 05ef 9f3c 26b0 083e
00000120: 3206 8dbd dd0a 45bd bb63 273d 3c57 473d
00000130: 2ee0 883c 71e3 0b3d 1854 edbd 42b9 53bd
00000140: 429c 413e 1e33 54bd 3b2b d2bc 8374 c9bd
00000150: d9c7 73bd a1ee ca3c 1b8f b1bd d960 babb
00000160: 878a 87bd 5b96 193d eb4b 86be 3d1a 923c
00000170: 577d 3fbc 13c4 16be 2ae8 93bc 528f ca3d
00000180: 8f72 08be c63c 513d b5fc 973d 1a15 bf3d
00000190: d88f 49bd 4875 50bc 0a2b fbbd c612 b0bd
000001a0: 2dab a23d 80ef 4dbd f4d8 d1bd 71c5 74bd
000001b0: dd0b ca3d 5030 14bd d4fe 41be 2875 b0bd
000001c0: 5aaa 3fbc fca7 20bc 95c9 da3c 1929 8bbd
000001d0: 10ca d8bb 078c 9ebd ce59 c8bd cdc1 afbd
000001e0: a7b0 013e 87ea 63bd d134 efbd b9fe 163e
000001f0: 40be fc3c ea3a a93c 0b57 2bbc a36f 443d
00000200: c15a 1abd 68e0 ed3c 000f 823c b72b 4cbd
00000210: 2315 f3bc 80cb 1b3c 5014 e63d f2c6 e5bd
00000220: 6710 61bd c164 75bc e507 583c a4e6 cb3c
00000230: a7f6 68bc f39a cabd 4b16 79bc fb8c a93d
00000240: d6db 32be 0b38 1c3e dddf 61bd ca43 1e3d
00000250: ebc0 603e b7a9 e3bd 8e44 ccbd 5de7 623d
00000260: 2c54 fabd 9566 50bd 2f36 b8bc 84cc a8bd
00000270: 1db2 813d 1eb9 dc3c 62b9 37bd efb0 ab3d
00000280: e193 a13d dcbb 5cbe 239b 20bc 4bed 963c
00000290: 2be5 2b3d cf3f bdbd ccd0 7ebd 8673 4dbc
000002a0: 2f2b a33b 6e2e 21bd 6f71 f5bd 5274 58bd
000002b0: 485e 33be f05f 9abd da6f c03d 37b2 fdbc
000002c0: b447 eebd 8eda 783d 313f 5b3e 16c4 033d
000002d0: 3c90 d0bd dd31 01be 2673 3ebd 3c08 cebb
000002e0: 41bd 2bbe 4aca 323b 6a3f 2d3c 793f 393d
000002f0: 15fa 7dbd 579e 14bc 5165 14be 2147 853d
00000300: 0ed4 52be 82e4 1fbc 3dbf b5bd 60ec bbbd
00000310: bdbc 65bc 5a94 073e 67b9 0cbe cbb9 3abe
00000320: 1100 dc3d 80f2 d8bd ab52 143b 9d0c 073e
00000330: 1c7d 9b3c 25eb 9e3d e23e ad3d 970c 89bd
00000340: ac70 b9bd 7ce0 fcbd 931f 3a3d c0b2 36be
00000350: c140 553d 6f73 b23d 77d7 fc3d 6572 463e
00000360: 4821 babd df79 05bd bba2 60bc df93 44be
00000370: de13 583d 91cd dfbd 2407 633b ba4b b33d
00000380: 2ea4 9cbe 7ecb acbd 1d90 e2bc 832c 203a
00000390: 16a0 fcbd 8975 45be 2004 f7bd 76c5 22be
000003a0: 4492 b3bd 5fe2 2fbe 6342 ca3d eeda 29bb
000003b0: cfe0 bfbd f7d1 213c c550 aebd 7091 02be
000003c0: 1e9d bf3d 97e1 6ebd 823f 0d3e c219 083c
000003d0: ce52 adbd ceeb c3bd 962e a03c f71d b43c
000003e0: fa3a 7b3c 7f69 a53d 4ce3 aa3d 006b d53a
000003f0: 5eb5 05bd d0d3 7c3d 9044 383c acd5 6c3c

bias f4 [64]
-0.033887535 -0.025754511 0.099007495 0.06735495 0.050432578 0.0014894769 0.024792539 -0.059617072
0.18540597 0.1397102 0.03013318 0.13428712 0.0956554 0.10055824 -0.0075308206 0.0015366551
0.18656261 0.14897217 0.11706145 0.08556075 0.07173813 0.19444378 -0.09673968 0.053251885
0.11569713 0.22014253 0.12845437 0.17985158 0.09147102 0.078726225 -0.017629964 0.002275375
-0.034225848 0.06481422 0.034379948 0.1657171 0.18074404 0.059203357 0.2404947 0.077777505
0.043607615 0.20327501 0.06304505 0.12157324 0.15080328 -0.020702416 0.067064606 -0.014221567
-0.03288004 -0.0038641496 0.22809044 0.14692086 0.12268574 0.10326058 0.058197223 -0.0018123416
0.15819646 -0.051876143 0.11584343 0.16115417 0.112469435 0.084554 0.17319193 0.111532666
00000000: a8cd 0abd 20fb d2bc 71c4 ca3d 64f1 893d
00000010: 6492 4e3d 8d3a c33a b919 cb3c 0831 74bd
00000020: 10db 3d3e 3110 0f3e dcd9 f63c 9082 093e
00000030: fae6 c33d 7bf1 cd3d 1ac5 f6bb 9769 c93a
00000040: 450a 3f3e 298c 183e eabd ef3d 793a af3d
00000050: 71eb 923d 451c 473e 741f c6bd a61e 5a3d
00000060: 9ef2 ec3d 0b6d 613e 8b89 033e 032b 383e
00000070: 2855 bb3d 373b a13d b76c 90bc 751e 153b
00000080: 6730 0cbd 51bd 843d fdd1 0c3d beb1 293e
00000090: f714 393e 387f 723d 3e44 763e d049 9f3d
000000a0: e69d 323d 5327 503e c31d 813d 64fb f83d
000000b0: 2d6c 1a3e 1d98 a9bc 2b59 893d 9301 69bc
000000c0: 39ad 06bd ac3d 7dbb 8a90 693e 6c72 163e
000000d0: a942 fb3d 487a d33d 3660 6e3d 188c edba
000000e0: 41fe 213e 147c 54bd 523f ed3d 9905 253e
000000f0: 6056 e63d a62a ad3d 3a59 313e 3d6b e43d

weight f4 [64, 2304]
-0.040470656 -0.009676146 -0.05572409 0.08358456 0.14348836 -0.051033076 -0.024670856 0.070479296
-0.03324086 0.01559861 0.046424333 -0.027600536 -0.10196385 -0.003927853 -0.117101565 0.01894492
-0.034164205 0.039785296 0.164511 -0.104811154 -0.005802776 0.13087274 -0.12135972 -0.026530745
-0.025758293 -0.070017084 -0.07471179 -0.032842427 -0.1770269 -0.012905443 0.048058953 0.053268835
-0.13426587 0.030350313 0.056868587 -0.0070864474 0.13658193 0.07877422 0.025412446 0.08908052
0.10754713 0.08085286 0.06012729 0.114287764 -0.0075564943 0.008821171 0.06523216 -0.04964144
-0.053909134 -0.03200246 0.079384096 0.03041649 -0.021048002 0.05260554 0.010179404 -0.0004680289
0.12130079 0.034390744 0.048191562 0.08762802 -0.12803116 0.0033193778 -0.07957819 -0.11284571
-0.10021888 0.0132759465 0.054414034 -0.14177044 -0.013863189 0.10144533 -0.017242268 0.05642342
-0.04395368 0.010264783 0.084140256 0.035007264 -0.006037762 0.007233546 -0.1258317 0.004182304
-0.053368464 -0.09558819 -0.026348429 -0.00306799 -0.16205323 0.09153732 -0.035825916 -0.15137485
0.068151094 0.051992107 -0.032978397 0.030781796 -0.010589838 0.113797046 0.087757766 0.040755194
0.100274354 -0.049598143 0.08533577 0.14965667 0.049897347 0.06476869 -0.0151464 0.0126765855
-0.103664525 0.021252563 0.03244297 0.040622473 0.040141035 0.033251457 0.04985693 -0.037168458
0.005749854 -0.03238966 0.08322468 -0.06386557 -0.038793597 -0.10540959 -0.14376974 -0.03847282
-0.076009385 -0.094368525 -0.18178126 0.024240173 -0.16275607 -0.18213318 -0.01585535 -0.091340266
-0.068491325 -0.077087715 0.08470378 0.010710318 -0.011030291 0.020186862 -0.07277117 -0.0066768327
0.07201508 0.023219619 0.05532828 0.06505505 -0.08156672 0.07666014 0.01061224 0.099271245
-0.07699544 0.038142543 -0.035444967 -0.0979444 0.077750154 -0.011538917 -0.027596857 -0.019993223
0.11549748 0.01798445 0.054538503 -0.007827357 -0.015894942 0.047390297 -0.011878878 -0.0064040488
0.04726079 -0.06925646 -0.05358919 -0.009644381 0.08567642 0.036253367 0.030743584 0.034368996
0.0519569 0.024254346 -0.03523065 0.104123645 0.036900744 -0.029573476 0.15920268 -0.007667481
-0.09588344 -0.008570007 -0.0017670379 -0.02500204 -0.13553815 -0.058423903 -0.029119696 -0.034760658
-0.03702206 -0.0153484875 -0.014233531 0.024346491 -0.05129993 -0.008080227 0.10485429 -0.024462726
0.08296926 0.07948078 -0.046324868 0.07714676 0.12930895 -0.16676803 0.10889748 0.069872595
-0.017364236 0.12960456 0.07583036 -0.087104745 0.06643858 -0.068927035 -0.048709538 0.028808536
-0.042912085 -0.041255057 -0.061626825 -0.05925724 -0.011139612 -0.04646928 0.015906457 -0.019298833
0.0046561062 -0.07309588 -0.00066774717 0.06397234 0.0042628176 -0.12006095 0.07236563 -0.03835393
-0.04879925 0.04978758 0.025387099 -0.13107324 0.017730389 -0.17350236 -0.04075579 -0.08726802
0.033298098 0.030371642 0.021755448 -0.030248035 -0.006968601 0.06534947 0.017435754 -0.03789382
0.06432808 0.09531156 -0.009176989 0.014030846 0.056105785 0.036489014 0.025663873 -0.024410132
0.01771243 -0.02298877 0.0049114474 0.090866216 -0.0070002647 0.046770707 -0.06436903 0.08766872
00000000: 8fc4 25bd b388 1ebc f23e 64bd 622e ab3d
00000010: 9dee 123e 0f08 51bd 891a cabc 7357 903d
00000020: 9127 08bd 5091 7f3c 7127 3e3d 851a e2bc
00000030: 6cd2 d0bd 38b5 80bb f2d2 efbd 6032 9b3c
00000040: c4ef 0bbd e8f5 223d 9275 283e 3ba7 d6bd
00000050: 3725 bebb 8103 063e 728b f8bd 0157 d9bc
00000060: 0e03 d3bc 1e65 8fbd 7f02 99bd c885 06bd
00000070: 8a46 35be 5a71 53bc 77d9 443d 6c30 5a3d
00000080: fe7c 09be 38a1 f83c 09ef 683d 6e35 e8bb
00000090: 22dc 0b3e 6154 a13d c32d d03c d96f b63d
000000a0: ab41 dc3d 2f96 a53d 0948 763d b40f ea3d
000000b0: 789c f7bb ac86 103c 7098 853d d354 4bbd
000000c0: d3cf 5cbd 0315 03bd 2194 a23d 012c f93c
000000d0: dc6c acbc e878 573d 84c7 263c c761 f5b9
000000e0: 8c6c f83d 4fdd 0c3d 8464 453d 5276 b33d
000000f0: 9a1a 03be eb89 593b e4f9 a2bd a71b e7bd
00000100: 8e3f cdbd 5b83 593c 40e1 5e3d 452c 11be
00000110: 6e22 63bc 92c2 cf3d a83f 8dbc 3e1c 673d
00000120: c608 34bd 9f2d 283c ba51 ac3d c763 0f3d
00000130: 6bd8 c5bb 6207 ed3b 06da 00be b50b 893b
00000140: e498 5abd bec3 c3bd a9d8 d7bc 5510 49bb
00000150: 48f1 25be eb77 bb3d 32be 12bd 0202 1bbe
00000160: cd92 8b3d adf5 543d 5b14 07bd 1b2a fc3c
00000170: 0081 2dbc 6d0e e93d 58ba b33d ebee 263d
00000180: a45c cd3d 6c27 4bbd 85c4 ae3d 993f 193e
00000190: 2961 4c3d 72a5 843d 9b28 78bc 74b1 4f3c
000001a0: 114e d4bd db19 ae3c ebe2 043d c063 263d
000001b0: ed6a 243d ae32 083d c836 4c3d f43d 18bd
000001c0: 4569 bc3b 05ab 04bd b371 aa3d f4cb 82bd
000001d0: 09e6 1ebd fce0 d7bd 6038 13be ad95 1dbd
000001e0: cfaa 9bbd 4944 c1bd de24 3abe 5493 c63c
000001f0: 87a9 26be 1f81 3abe 14e3 81bc 9b10 bbbd
00000200: 2e45 8cbd 2ae0 9dbd 2d79 ad3d 547a 2f3c
00000210: 65b8 34bc eb5e a53c 0d09 95bd 55c9 dabb
00000220: a47c 933d 1237 be3c e89f 623d 953b 853d
00000230: 740c a7bd feff 9c3d f6de 2d3c b94e cb3d
00000240: c9af 9dbd 5b3b 1c3d be2e 11bd 1397 c8bd
00000250: 793b 9f3d ba0d 3dbc ce12 e2bc d4c8 a3bc
00000260: f189 ec3d 2054 933c c463 5f3d 513e 00bc
00000270: 1c36 82bc 541c 423d a09f 42bc 0ed9 d1bb
00000280: 8894 413d 55d6 8dbd 5780 5bbd 7703 1ebc
00000290: 1e77 af3d 697e 143d f8d9 fb3c 81c6 0c3d
000002a0: c2d0 543d 0db1 c63c 044e 10bd c73e d53d
000002b0: 3c25 173d 1344 f2bc 0706 233e 7e3f fbbb
000002c0: 895e c4bd 3769 0cbc f49b e7ba 14d1 ccbc
000002d0: 83ca 0abe e74d 6fbd 6e8c eebc 3161 0ebd
000002e0: 72a4 17bd 3978 7bbc c233 69bc 4b72 c73c
000002f0: e01f 52bd ee62 04bc d9bd d63d 0e66 c8bc
00000300: caeb a93d d2c6 a23d 25bf 3dbd 1fff 9d3d
00000310: 9169 043e 3dc5 2abe a405 df3d 5d19 8f3d
00000320: 713f 8ebc 0fb7 043e f34c 9b3d f963 b2bd
00000330: f310 883d 9e29 8dbd a783 47bd e1ff eb3c
00000340: 95c4 2fbd 10fb 28bd 696c 7cbd b8b7 72bd
00000350: eb82 36bc 9256 3ebd 424e 823c 9618 9ebc
00000360: 4092 983b 4bb3 95bd c10b 2fba ee03 833d
00000370: 1baf 8b3b 84e2 f5bd 6e34 943d 0319 1dbd
00000380: b9e1 47bd 10ee 4b3d 9bf8 cf3c 1038 06be
00000390: 523f 913c 9aaa 31be 8bef 26bd 93b9 b2bd
000003a0: 9663 083d f3cd f83c 7b38 b23c baca f7bc
000003b0: dd58 e4bb f1d5 853d 6dd5 8e3c 8d36 1bbd
000003c0: 71be 833d b532 c33d 155b 16bc a2e1 653c
000003d0: 2ecf 653d 8175 153d 0b3d d23c c2f7 c7bc
000003e0: a819 913c f252 bcbc 35f0 a03b 1118 ba3d
000003f0: 7a62 e5bb a492 3f3d e9d3 83bd a88b b33d

bias f4 [64]
0.27798975 0.26495513 0.23810746 0.22770424 0.25972152 0.25655547 0.21505268 0.22932711
0.10568777 0.11548576 -0.009954554 0.11149737 -0.018546255 0.124150686 -0.015079507 0.26911598
0.06578253 -0.016935103 -0.006967653 -0.023213943 -0.032868512 0.28173307 0.08364393 0.20595595
-0.011302711 0.20111112 0.08752728 0.23503551 0.23797183 0.2404393 -0.036317002 -0.034991626
-0.016195698 0.052072424 0.2693436 -0.017280683 0.054153226 -0.012018955 0.24173859 0.08535494
0.21770026 -0.00892815 0.06750419 -0.034981266 -0.034968708 0.12507775 -0.0070559257 0.04907843
0.2596933 0.24802105 0.075751185 0.07337184 0.08638036 0.120098874 0.09882713 0.29821143
0.07682194 0.040511318 0.2419814 0.21936269 -0.05347004 0.25596756 -0.027561165 0.08212272
00000000: ac54 8e3e 33a8 873e 71d2 733e 4d2b 693e
00000010: 38fa 843e 3d5b 833e c536 5c3e bad4 6a3e
00000020: d472 d83d cc83 ec3d 6d18 23bc bc58 e43d
00000030: 51ee 97bc b742 fe3d 0910 77bc 92c9 893e
00000040: feb8 863d 7cbb 8abc e950 e4bb 2b2b bebc
00000050: 22a1 06bd 513f 903e 824d ab3d 1ee6 523e
00000060: 022f 39bc 13f0 4d3e 8141 b33d 26ad 703e
00000070: e3ae 733e b835 763e 23c1 14bd 6153 0fbd
00000080: d7ac 84bc e549 553d 68e7 893e 3890 8dbc
00000090: c6cf 5d3d 27eb 44bc 528a 773e 92ce ae3d
000000a0: d1ec 5e3e 6047 12bc a33f 8a3d 8448 0fbd
000000b0: 593b 0fbd 6214 003e 6535 e7bb 7706 493d
000000c0: 85f6 843e 3bf9 7d3e 7023 9b3d fa43 963d
000000d0: 30e8 b03d 66f6 f53d e165 ca3d 2baf 983e
000000e0: d254 9d3d 32ef 253d f9c9 773e 9da0 603e
000000f0: 6703 5bbd 2e0e 833e f4c7 e1bc f52f a83d

weight f4 [51, 64]
0.16899957 0.13765493 0.18378866 0.20223117 0.17390195 0.16669367 0.16577138 0.17031693
-0.3212406 -0.417163 -0.07438017 -0.41855204 -0.20274733 -0.3955835 -0.15614924 0.1436897
-0.46882045 -0.17929 -0.14614333 -0.11561983 0.0077372156 0.14263575 -0.4477926 0.14926343
0.19772184 0.15729268 -0.5068417 0.1675272 0.16160229 0.17239042 -0.024364352 -0.2185903
-0.1459561 -0.23788378 0.1905869 0.066143215 -0.29426336 0.12941024 0.15982907 -0.44320235
0.14999487 -0.13568655 -0.43957764 -0.107862964 -0.085212976 -0.4260687 0.036363583 -0.27270392
0.14286324 0.1876228 -0.47463632 -0.2559296 -0.31356287 -0.39674896 -0.28150076 0.1639211
-0.313536 -0.1917929 0.18995121 0.17067146 -0.17436524 0.1094664 0.0063090757 -0.4056768
-0.057818104 0.16534758 -0.086236954 0.22636604 -0.18991604 0.15273638 0.14859524 -0.06902981
0.14519036 -0.018481761 -0.19665943 0.12304819 0.08405718 -0.1144056 0.089963146 -0.14781894
0.12524036 0.07589043 0.14960869 -0.090184174 -0.06821015 0.10777358 -0.043115836 -0.14882232
-0.14097942 -0.14563459 -0.1365819 0.18922783 -0.063211516 -0.107429706 -0.11361128 0.05218627
0.2021205 -0.081094734 -0.11860218 0.10814123 -0.09564786 -0.14580794 -0.15354082 0.1234829
0.095536895 0.042983707 -0.16969988 0.16987836 0.24249348 0.14119954 -0.20917283 -0.060945753
-0.094012 -0.1528736 -0.064572304 -0.077336274 -0.12888515 0.013475254 -0.050120994 0.172178
-0.14108287 0.0108390525 -0.12705147 0.13840339 0.086388275 0.07018153 0.00933728 -0.09897075
-0.14840035 -0.1391731 -0.14101781 0.19660564 -0.0434683 -0.14298147 -0.014467422 0.04995034
-0.09634685 -0.10668728 -0.18191364 -0.13684927 0.08014918 0.17624444 0.20702505 0.12113125
-0.104311675 -0.034469295 -0.16380857 0.048659373 -0.24921109 -0.10905419 -0.062105894 -0.1906774
-0.024962874 0.1517221 -0.1406132 0.18563998 -0.11012448 0.14030321 -0.08962236 -0.10048753
0.19771625 0.09728964 0.18907541 0.086041525 0.08145213 -0.22010693 -0.11433737 0.17773245
0.19582692 -0.18087862 -0.21417154 0.118602864 -0.19762522 0.12881255 0.14986072 -0.14134952
-0.18562545 -0.0688767 0.1772283 -0.11445115 -0.006994964 -0.046644922 -0.011563382 -0.13234158
-0.18138017 -0.046954125 -0.05917951 -0.026072 -0.12042013 -0.11382744 -0.07947715 0.03759847
0.12807438 -0.14830287 -0.06943662 -0.18737806 -0.0829959 0.1399347 -0.07847277 -0.090017624
0.11831508 -0.11109105 0.13823989 0.111563385 0.119441725 -0.19114132 0.08200677 0.15074492
-0.0024991846 -0.054958068 0.18757465 0.059606686 0.039622046 -0.15904188 -0.05425411 -0.1680159
-0.083402455 0.1395929 -0.15073304 -0.073699966 0.114200585 -0.15433289 -0.11391521 -0.2450049
0.060788874 -0.14391692 0.17873062 0.25943646 -0.07329637 -0.04056699 -0.094536416 0.13267437
0.16544425 0.11611362 -0.10600631 0.13379884 0.055072907 -0.072815746 -0.19242404 0.110202014
-0.21911202 -0.106786534 -0.18532291 -0.10795817 0.08475657 0.16045484 0.10723816 -0.08779938
-0.07992835 -0.09925907 0.17365058 -0.015093086 0.11535983 -0.10895612 -0.1908286 0.032412402
00000000: 390e 2d3e 6af5 0c3e 1833 3c3e b015 4f3e
00000010: 5a13 323e bfb1 2a3e f9bf 293e 9067 2e3e
00000020: a679 a4be 6496 d5be a154 98bd 744c d6be
00000030: ff9c 4fbe ec89 cabe 96e5 1fbe 6523 133e
00000040: 3c09 f0be cc97 37be 99a6 15be 17ca ecbd
00000050: 7888 fd3b 1b0f 123e 1245 e5be 83d8 183e
00000060: 9877 4a3e 5511 213e 61c0 01bf 408c 2b3e
00000070: 127b 253e 1d87 303e c097 c7bc 23d6 5fbe
00000080: 8475 15be ce97 73be 3629 433e 1876 873d
00000090: b0a9 96be 1e84 043e 3baa 233e 6beb e2be
000000a0: 4198 193e 6af1 0abe 5210 e1be 42e7 dcbd
000000b0: 2484 aebd ad25 dabe fbf1 143d d99f 8bbe
000000c0: be4a 123e 3120 403e 8803 f3be 3409 83be
000000d0: 508b a0be ae22 cbbe de20 90be efda 273e
000000e0: ca87 a0be 5c65 44be 9282 423e 80c4 2e3e
000000f0: cd8c 32be ec2f e03d 5dbc ce3b dfb4 cfbe
00000100: add2 6cbd e050 293e 009d b0bd 80cc 673e
00000110: 5a79 42be ed66 1c3e 5a29 183e 805f 8dbd
00000120: c8ac 143e 1067 97bc 1761 49be b000 fc3d
00000130: 2c26 ac3d 7c4d eabd 993e b83d d95d 17be
00000140: 023f 003e 716c 9b3d 0533 193e 7bb2 b8bd
00000150: c3b1 8bbd 65b8 dc3d 3b9a 30bd e164 18be
00000160: e95c 10be 3c21 15be 20dc 0bbe f1c4 413e
00000170: 0a75 81bd 1b04 dcbd 08ad e8bd 45c1 553d
00000180: adf8 4e3e ff14 a6bd b3e5 f2bd 2679 dd3d
00000190: 06e3 c3bd ad4e 15be ce39 1dbe 9ae4 fc3d
000001a0: d9a8 c33d af0f 303d cec5 2dbe 98f4 2d3e
000001b0: 3650 783e 9d96 103e 6731 56be 41a2 79bd
000001c0: 5d89 c0bd e68a 1cbe 7c3e 84bd 7b62 9ebd
000001d0: 78fa 03be 50c7 5c3c ac4b 4dbd 6e4f 303e
000001e0: 0778 10be 4896 313c c819 02be 9eb9 0d3e
000001f0: 56ec b03d 56bb 8f3d 64fb 183c 2db1 cabd
00000200: 43f6 17be 6583 0ebe f966 10be fd52 493e
00000210: d10b 32bd bc69 12be c408 6dbc ba98 4c3d
00000220: 7f51 c5bd dc7e dabd 9247 3abe 3722 0cbe
00000230: 4125 a43d 6c79 343e 60fe 533e a913 f83d
00000240: 5ca1 d5bd ad2f 0dbd 6fbd 27be 0d4f 473d
00000250: 3131 7fbe ce57 dfbd c062 7ebd f040 43be
00000260: f17e ccbc 0a5d 1b3e e8fc 0fbe 6818 3e3e
00000270: f288 e1bd a5ab 0f3e ee8b b7bd 68cc cdbd
00000280: 2176 4a3e ca3f c73d fc9c 413e 8a36 b03d
00000290: 60d0 a63d b663 61be b629 eabd 7fff 353e
000002a0: da86 483e 3f38 39be c94f 5bbe 0fe6 f23d
000002b0: 445e 4abe 70e7 033e 1775 193e eebd 10be
000002c0: 9914 3ebe 3a0f 8dbd 567b 353e 5d65 eabd
000002d0: 0336 e5bb bf0e 3fbd 5774 3dbc 8d84 07be
000002e0: b9bb 39be f852 40bd 3766 72bd f294 d5bc
000002f0: d49e f6bd 5c1e e9bd ebc4 a2bd da00 1a3d
00000300: ee25 033e b5dc 17be c934 8ebd 09e0 3fbe
00000310: c1f9 a9bd 0b4b 0f3e 55b6 a0bd 295b b8bd
00000320: 2d4f f23d b483 e3bd c28e 0d3e 587b e43d
00000330: dd9d f43d 8dba 43be 2af3 a73d e05c 1a3e
00000340: 5cc9 23bb b61b 61bd 9213 403e 2426 743d
00000350: ba4a 223d e0db 22be 8f39 5ebd 5c0c 2cbe
00000360: e8ce aabd 71f1 0e3e c359 1abe 02f0 96bd
00000370: ffe1 e93d 7109 1ebe 614c e9bd 91e2 7abe
00000380: c1fd 783d f55e 13be 2905 373e dbd4 843e
00000390: 681c 96bd 9229 26bd 4f9c c1bd cadb 073e
000003a0: 386a 293e facc ed3d d619 d9bd 9002 093e
000003b0: 2194 613d 6c20 95bd cf0a 45be 98b1 e13d
000003c0: e75e 60be e6b2 dabd 4ac5 3dbe 2c19 ddbd
000003d0: da94 ad3d 464e 243e ae9f db3d 29d0 b3bd
000003e0: 7ab1 a3bd 5748 cbbd 75d1 313e fe48 77bc
000003f0: c641 ec3d 6324 dfbd 9368 43be dec2 043d

bias f4 [51]
2.085591 -0.36632594 -0.14042458 -0.19110794 0.009076909 -0.21865717 -0.14149828 -0.34716198
-0.299818 -0.16170307 -0.010772665 0.04092141 -0.07150438 0.1225468 -0.29899234 -0.2162041
-0.36304635 -0.13882312 -0.095756106 -0.3249002 -0.15240665 0.08571436 -0.21606454 -0.27072936
-0.20151335 -0.093711555 0.045040034 -0.3167719 -0.032759696 -0.14367522 -0.09340711 -0.1983862
-0.20388272 -0.12777431 -0.1245759 -0.17252198 -0.11582425 -0.12992199 -0.47675598 -0.07416541
-0.20627548 -0.20050408 -0.25290027 -0.27123728 -0.21487905 -0.2173167 -0.0639008 -0.3173797
-0.60574496 -0.1640597 -0.2971084
00000000: 537a 0540 138f bbbe 76cb 0fbe cdb1 43be
00000010: 51b7 143c aae7 5fbe ede4 10be 37bf b1be
00000020: bf81 99be 7d95 25be d57f 30bc 359d 273d
00000030: e370 92bd d1f9 fa3d 8615 99be 9c64 5dbe
00000040: 36e1 b9be a627 0ebe c71b c4bd 5259 a6be
00000050: 7d10 1cbe 038b af3d 0640 5dbe 0a9d 8abe
00000060: 8459 4ebe d8eb bfbd e67b 383d ed2f a2be
00000070: 082f 06bd 991f 13be 3a4c bfbd c125 4bbe
00000080: a2c6 50be 45d7 02be a621 ffbd 9aa9 30be
00000090: 4435 edbd 450a 05be 5c19 f4be 09e4 97bd
000000a0: e139 53be f150 4dbe 257c 81be 9ddf 8abe
000000b0: 4109 5cbe 4588 5ebe 6cde 82bd 987f a2be
000000c0: 1a12 1bbf 44ff 27be 981e 98be
